torch-etudes/cifar/cifar_net.pth (torch_old, 249602 bytes, 10 tensors)

conv1.weight f4 [6, 3, 5, 5]
0.17942075 0.10546794 0.1537762 0.3273387 0.061136715 0.26550502 0.17584576 0.21687856
0.24793586 0.092463404 0.35346997 0.5458092 0.5046058 0.55131257 0.30258438 -0.14200729
-0.13025711 -0.26309964 0.07759499 -0.19723395 -0.51813775 -0.5672616 -0.6435143 -0.44624156
-0.4834566 -0.042178653 -0.21363047 -0.2670611 0.08921854 -0.043413315 -0.107576415 -0.2619948
-0.23791994 -0.05638808 -0.2802032 0.40370122 0.19972658 0.04433824 0.27385962 -0.0821205
0.13974221 -0.14721583 -0.08671956 0.057339683 -0.30605268 -0.094402395 -0.34091485 -0.38078055
-0.0683824 -0.10567831 0.04952272 -0.11278009 -0.2073384 0.15819572 0.08328082 0.0021160184
-0.31022367 -0.3804605 -0.19378653 -0.29371327 0.32689297 0.22333653 0.13575825 0.3857997
0.04408705 0.23017678 0.20219468 -0.027214702 0.2551067 0.091178134 -0.05512284 -0.025279038
0.036577314 0.13177516 0.19196425 -0.12287482 -0.098712236 -0.05677593 0.027634919 0.0008165698
-0.08405016 -0.16201945 -0.24154387 -0.13258336 -0.2998841 -0.3697353 -0.28165978 -0.30653328
-0.3052592 -0.22264123 -0.15251927 -0.042412758 -0.13558207 -0.09028965 -0.19276617 -0.18753211
-0.173235 -0.064372234 -0.03945843 -0.010542479 0.14946447 0.11937551 0.1431712 0.037921563
0.025972677 0.020542813 0.19327974 0.10309345 -0.003435938 -0.02249677 0.06306444 -0.07109187
-0.055777244 -0.073067315 -0.020235458 0.11268208 0.10924616 -0.03329441 0.043390606 0.02383373
-0.040858116 -0.043293066 -0.07044864 0.016505772 0.04342574 0.1925199 0.2772002 0.33801356
0.28376564 0.1307455 0.09103563 0.3013692 0.25853947 0.23051016 0.16264923 0.024802204
0.0520534 0.0629194 0.27797535 0.1958671 0.17607468 0.06446983 0.17266072 0.040133387
0.08650828 -0.09338887 0.03270702 0.05562419 0.05823236 -0.027287195 0.06478747 -0.014376431
-0.25655204 0.09476358 0.098130174 0.008866383 -0.091792524 -0.52557194 0.13248909 0.09195864
0.048546832 0.0009354672 -0.54558784 0.068873964 0.29660594 0.049709644 -0.15947361 -0.35558823
-0.08166864 0.3348059 -0.07200165 0.05448784 -0.17409548 -0.014821781 0.09834664 0.07381332
0.13444772 -0.19363971 -0.0019862698 0.09427943 0.14510623 0.11986404 -0.47367838 0.15616082
0.32175547 0.2248264 -0.0149064455 -0.51727706 0.09399601 0.4923601 0.23735112 0.09726464
-0.28321 0.0012644398 0.46515325 0.0508445 0.2156767 -0.053045124 0.0068019256 0.29618198
-0.12418869 -0.055142764 -0.14509699 0.00452907 0.12307946 0.11378843 -0.0002943348 -0.40629926
0.07459658 0.15940817 0.029177655 -0.005010826 -0.34405074 0.10103704 0.27976853 -0.063363
0.1051186 -0.36593968 0.09556223 0.3015852 -0.2545717 0.02903913 -0.21024582 0.005898594
0.12098376 -0.08734249 -0.11664885 -0.23040843 -0.08031153 -0.14379148 -0.13948849 -0.2746325
-0.413428 -0.33861324 -0.10822498 0.05338736 0.1273371 0.04908873 0.068357386 -0.12846099
0.04600032 0.25637215 0.24348512 0.19490202 0.28000867 0.29469386 0.18735006 0.22456007
0.24578524 0.19284157 -0.061742127 -0.17823422 -0.20281687 -0.19327652 -0.033290554 -0.19306533
00000000: 13ba 373e 93ff d73d 8277 1d3e f098 a73e
00000010: 7e6a 7a3d 46f0 873e e910 343e 6a15 5e3e
00000020: e6e2 7d3e 745d bd3d 04fa b43e 27ba 0b3f
00000030: d92d 013f d222 0d3f 57ec 9a3e 5c6a 11be
00000040: 1f62 05be ffb4 86be 1fea 9e3d b2f7 49be
00000050: ada4 04bf 0e38 11bf 5abd 24bf c679 e4be
00000060: a087 f7be 86c3 2cbd f2c1 5abe 3cbc 88be
00000070: 36b8 b63d 29d2 31bd 0651 dcbd 2f24 86be
00000080: 49a1 73be 30f7 66bd cb76 8fbe edb1 ce3e
00000090: 2085 4c3e 049c 353d 5437 8c3e cb2e a8bd
000000a0: 9518 0f3e bfbf 16be 069a b1bd 04dd 6a3d
000000b0: f0b2 9cbe 0b56 c1bd 648c aebe abf5 c2be
000000c0: 120c 8cbd df6d d8bd 56d8 4a3d 3ff9 e6bd
000000d0: 8450 54be 0ffe 213e 228f aa3d e6ac 0a3b
000000e0: a3d5 9ebe b8cb c2be fa6f 46be 9661 96be
000000f0: 845e a73e 55b2 643e 3604 0b3e 8a87 c53e
00000100: 9f94 343d 76b3 6b3e 1f0c 4f3e 5ef1 debc
00000110: 589d 823e 9abb ba3d 7dc8 61bd fc15 cfbc
00000120: 18d2 153d 11f0 063e 4792 443e cba5 fbbd
00000130: a429 cabd e18d 68bd a062 e23c 120f 563a
00000140: 7e22 acbd 6de8 25be 4757 77be efc3 07be
00000150: 698a 99be f24d bdbe b635 90be eef1 9cbe
00000160: ef4a 9cbe 10fc 63be 032e 1cbe 00b9 2dbd
00000170: 07d6 0abe c8e9 b8bd 7f64 45be 6b08 40be
00000180: 8464 31be 97d5 83bd 2a9f 21bd 5dba 2cbc
00000190: 370d 193e 267b f43d 799b 123e a453 1b3d
000001a0: a7c4 d43c 6749 a83c 20eb 453e a922 d33d
000001b0: 792d 61bb 254b b8bc ee27 813d 9d98 91bd
000001c0: ae76 64bd 51a4 95bd d5c4 a5bc ddc5 e63d
000001d0: 73bc df3d b85f 08bd 59ba 313d f43e c33c
000001e0: d75a 27bd 1254 31bd 6047 90bd 1d37 873c
000001f0: 30df 313d f023 453e 2fed 8d3e 1d10 ad3e
00000200: bb49 913e 26e2 053e e370 ba3d 104d 9a3e
00000210: 495f 843e db0a 6c3e 858d 263e fe2d cb3c
00000220: f235 553d e3db 803d c952 8e3e 6391 483e
00000230: ec4c 343e c208 843d f9cd 303e e862 243d
00000240: 412b b13d aa42 bfbd ccf7 053d 31d6 633d
00000250: 0e85 6e3d 6589 dfbc 4baf 843d 1f8b 6bbc
00000260: ca5a 83be 6813 c23d 79f8 c83d 4e44 113c
00000270: b8fd bbbd e28b 06bf 38ab 073e d054 bc3d
00000280: 0bd9 463d 243a 753a a5ab 0bbf cb0d 8d3d
00000290: bcdc 973e 579c 4b3d 0d4d 23be a90f b6be
000002a0: e341 a7bd ae6b ab3e 9a75 93bd a42e 5f3d
000002b0: 1646 32be 0ed7 72bc f769 c93d 702b 973d
000002c0: aaac 093e 7d49 46be 142c 02bb 9315 c13d
000002d0: ba96 143e 477b f53d f985 f2be 9fe8 1f3e
000002e0: 22bd a43e e438 663e 2a3a 74bc 456c 04bf
000002f0: fb80 c03d 9f16 fc3e 2c0c 733e af32 c73d
00000300: e700 91be 8fbb a53a 9128 ee3e 5342 503d
00000310: 5ada 5c3e d845 59bd b0e2 de3b 2aa5 973e
00000320: a456 febd 61dd 61bd 4e94 14be 9868 943b
00000330: 1511 fc3d e909 e93d f350 9ab9 7506 d0be
00000340: 17c6 983d e53b 233e fa05 ef3c db31 a4bb
00000350: 6b27 b0be 82ec ce3d d23d 8f3e 76c4 81bd
00000360: 6c48 d73d 725c bbbe 21b6 c33d 6069 9a3e
00000370: 3957 82be 78e3 ed3c ae4a 57be fe48 c13b
00000380: 55c6 f73d 9fe0 b2bd 98e5 eebd 30f0 6bbe
00000390: 5f7a a4bd 133e 13be 12d6 0ebe a29c 8cbe
000003a0: d6ac d3be b75e adbe 0fa5 ddbd b4ac 5a3d
000003b0: a864 023e 4411 493d f5fe 8b3d 478b 03be
000003c0: d56a 3c3d 3643 833e 2a54 793e 6594 473e
000003d0: 4c5d 8f3e 1de2 963e b2d8 3f3e 13f3 653e
000003e0: 20af 7b3e 4378 453e 50e5 7cbd 0883 36be
000003f0: 3aaf 4fbe 48ea 45be ad5b 08bd ebb2 45be

conv1.bias f4 [6]
-0.5884367 0.5441323 0.123300284 -0.37872493 -0.3810512 0.06424947
00000000: caa3 16bf 414c 0b3f dc84 fc3d 3ce8 c1be
00000010: 2519 c3be 3a95 833d

conv2.weight f4 [16, 6, 5, 5]
-0.115249865 -0.22770151 -0.116229326 -0.03548245 -0.12878007 -0.08142136 -0.12509346 -0.13539293
-0.064721145 -0.14451344 -0.013555807 -0.14024134 -0.12803619 -0.18313651 -0.1672644 -0.11301434
-0.11002932 -0.007005218 -0.10694042 -0.09272832 -0.023683837 0.044068594 -0.15180774 -0.09884967
0.02099891 0.22020991 0.038821064 -0.012108024 -0.037315868 0.12052482 0.15477172 0.020402512
-0.04649505 -0.0647681 -0.012894404 0.19829676 0.074847884 0.0016702266 -0.1225456 -0.049009405
0.2064658 0.050350524 0.03571178 -0.009166113 -0.032669708 0.20888342 0.07171656 0.08916269
-0.03653331 0.02507247 -0.0024663997 0.010669016 -0.023141704 0.14420553 0.08096589 -0.07353823
0.042038184 0.05406455 0.21155345 0.025436277 0.030653093 0.117783904 0.06744664 0.07973295
-0.0036416834 -0.034130637 0.21451466 0.17848462 0.19101007 -0.053717624 0.053839263 0.3092898
0.29404324 0.3134079 0.025860736 -0.17813708 0.017212013 0.052015536 0.08094261 0.0013341649
-0.11474139 -0.052549466 -0.14045359 -0.049312994 0.016807923 -0.15692353 -0.10982732 -0.08123587
-0.08466069 -0.040922876 -0.07225378 -0.042154804 -0.0012026628 -0.079810776 -0.08300163 0.05277244
0.07215177 0.0381079 0.06605068 0.035854414 0.03162293 -0.021401322 -0.03095626 -0.043291293
0.09796747 0.13424832 -0.034778304 -0.11114091 -0.056140862 -0.095284335 -0.02055765 -0.04548674
-0.04816164 -0.08690165 -0.09681272 0.053004377 0.07764068 0.08287428 0.08537552 -0.007927276
0.14962013 0.09197861 0.18917798 0.029564183 -0.08016627 -0.060082667 -0.12595773 -0.24435523
-0.2560519 -0.23937318 -0.056466658 -0.14816023 -0.2698989 -0.13303767 -0.2817326 -0.0685715
-0.05770557 -0.19554713 -0.30052623 -0.29046243 0.026347348 -0.11925697 -0.1277749 -0.23000573
-0.16061151 -0.050483633 -0.08648856 -0.17992228 -0.188954 -0.111548334 0.031204883 -0.0406827
-0.027683292 -0.036282435 0.098805755 0.14726692 -0.015835807 -0.05599658 0.04776545 0.12121169
-0.009963499 0.09841808 0.23559307 0.13889405 -0.16584796 0.047687404 0.09699767 0.26228037
0.09516782 -0.07419326 -0.09540549 0.10792503 0.10988975 0.27705172 0.15399429 0.096110314
0.0286357 0.043265685 0.035795823 -0.08855467 0.118629366 0.10408209 0.037192035 0.014779294
-0.08359262 -0.07108665 0.046690606 0.05726266 0.053305246 0.008781776 -0.21388091 0.029013665
0.055549454 -0.03075107 -0.118385546 -0.10510851 -0.1506261 -0.034908257 -0.059738763 -0.13302533
-0.36037296 -0.0781989 -0.051986363 0.0024040614 -0.06475677 0.019354975 -0.16652359 0.034417078
-0.04341607 -0.07798047 0.33573404 0.032345664 -0.0474929 0.06390215 0.026221491 0.06228079
0.23894617 0.069297954 0.075211346 0.14904222 -0.36861756 -0.2128519 -0.15449585 -0.13668562
0.040088806 0.047027886 -0.014229377 -0.04058059 -0.08099622 -0.14333507 -0.078694195 -0.05902983
-0.06528442 -0.115824215 -0.1560701 -0.070087 -0.21931675 -0.18744564 -0.13072152 -0.07804859
0.10553045 -0.13867784 -0.16130759 -0.065798976 -0.021812635 0.18857719 0.26581284 0.06542154
-0.027750323 -0.07467388 -0.019207671 -0.2421861 -0.12975775 -0.046444822 -0.11789553 0.28313768
00000000: 1f08 ecbd 962a 69be a409 eebd 0c56 11bd
00000010: ecde 03be 3ec0 a6bd 8018 00be 72a4 0abe
00000020: 858c 84bd 55fb 13be 2d19 5ebc 6d9b 0fbe
00000030: eb1b 03be 2388 3bbe 5c47 2bbe 1074 e7bd
00000040: 0d57 e1bd 078c e5bb 9403 dbbd 58e8 bdbd
00000050: 9b04 c2bc 4581 343d 7d73 1bbe b271 cabd
00000060: e805 ac3c b57e 613e d602 1f3d bc60 46bc
00000070: 86d8 18bd b8d5 f63d 7a7c 1e3e 2b23 a73c
00000080: 9871 3ebd 23a5 84bd 0d43 53bc 4e0e 4b3e
00000090: d949 993d 81eb da3a 30f9 fabd 16be 48bd
000000a0: c56b 533e 5a3c 4e3d 8446 123d 772d 16bc
000000b0: acd0 05bd 89e5 553e 22e0 923d ee9a b63d
000000c0: f4a3 15bd c864 cd3c 52a3 21bb 19cd 2e3c
000000d0: ac93 bdbc 9daa 133e 72d1 a53d 369b 96bd
000000e0: 3b30 2c3d ca72 5d3d 78a1 583e bd5f d03c
000000f0: 321c fb3c b038 f13d 7721 8a3d 074b a33d
00000100: 4fa9 6ebb 91cc 0bbd bba9 5b3e acc4 363e
00000110: 2598 433e 0307 5cbd 8f86 5c3d 3c5b 9e3e
00000120: d68c 963e 0077 a03e e5d9 d33c 9169 36be
00000130: 3500 8d3c 3e0e 553d 3dc5 a53d 25df ae3a
00000140: 89fd eabd 1c3e 57bd 11d3 0fbe 6cfc 49bd
00000150: c5b0 893c 90b0 20be 25ed e0bd fe5e a6bd
00000160: 9562 adbd bf9e 27bd caf9 93bd 84aa 2cbd
00000170: aba2 9dba d573 a3bd c2fc a9bd ea27 583d
00000180: 4fc4 933d 0817 1c3d 9445 873d 14dc 123d
00000190: 0c87 013d d351 afbc fc97 fdbc 3652 31bd
000001a0: 2ba3 c83d 6478 093e b273 0ebd d89d e3bd
000001b0: f6f3 65bd 6f24 c3bd 8468 a8bc 4e50 3abd
000001c0: 2445 45bd 7ef9 b1bd bf45 c6bd 1e1b 593d
000001d0: 1402 9f3d feb9 a93d 5cd9 ae3d 68e1 01bc
000001e0: 0536 193e 485f bc3d dfb7 413e 9630 f23c
000001f0: 372e a4bd 3e19 76bd 10fb 00be 4238 7abe
00000200: 3c19 83be 3e1e 75be 9549 67bd 51b7 17be
00000210: 3030 8abe 073b 08be 413f 90be 376f 8cbd
00000220: ad5c 6cbd 823d 48be 93de 99be 7eb7 94be
00000230: 65d6 d73c 003d f4bd 6cd7 02be 9f86 6bbe
00000240: 5877 24be edc7 4ebd ea20 b1bd 8c3d 38be
00000250: 287d 41be 7473 e4bd 62a1 ff3c e7a2 26bd
00000260: 12c8 e2bc e49c 14bd ac5a ca3d 24cd 163e
00000270: 18ba 81bc ab5c 65bd b4a5 433d d63d f83d
00000280: f23d 23bc 6b8f c93d 4f3f 713e 3e3a 0e3e
00000290: 0cd4 29be de53 433d b7a6 c63d 9d49 863e
000002a0: 59e7 c23d a3f2 97bd f463 c3bd cc07 dd3d
000002b0: e10d e13d b9d9 8d3e aeb0 1d3e 7cd5 c43d
000002c0: 6a95 ea3c 5c37 313d a49e 123d 275c b5bd
000002d0: f4f3 f23d fe28 d53d ad56 183d da24 723c
000002e0: 9c32 abbd e195 91bd a63e 3f3d 408c 6a3d
000002f0: 9a56 5a3d 70e1 0f3c 9903 5bbe 11ae ed3c
00000300: d387 633d abe9 fbbc 1f74 f2bd 2143 d7bd
00000310: ba3d 1abe f6fb 0ebd a2b0 74bd cb37 08be
00000320: ce82 b8be bf26 a0bd a7ef 54bd 758d 1d3b
00000330: 339f 84bd 538e 9e3c 2985 2abe ecf8 0c3d
00000340: 0dd5 31bd 3ab4 9fbd 55e5 ab3e e37c 043d
00000350: ea87 42bd 21df 823d 74ce d63c 241a 7f3d
00000360: 4eae 743e 16ec 8d3d 6808 9a3d 869e 183e
00000370: 71bb bcbe d9f5 59be 2934 1ebe 51f7 0bbe
00000380: 2934 243d 50a0 403d 5522 69bc d537 26bd
00000390: 59e1 a5bd 6ec6 12be 6c2a a1bd 43c9 71bd
000003a0: d7b3 85bd 3f35 edbd d7d0 1fbe c689 8fbd
000003b0: 9294 60be c0f1 3fbe dddb 05be f0d7 9fbd
000003c0: 5920 d83d 9001 0ebe d12d 25be 9dc1 86bd
000003d0: 69b0 b2bc 611a 413e 9f18 883e bafb 853d
000003e0: a554 e3bc 9fee 98bd 6859 9dbc a2ff 77be
000003f0: 37df 04be ed3c 3ebd 3673 f1bd 6cf7 903e

conv2.bias f4 [16]
0.4519625 -0.6406522 -0.14070626 0.25735414 -0.058039535 -0.6534289 0.05738309 0.7538245
-0.33239713 -0.34067434 -0.02105743 0.5817331 0.05327835 -0.2840421 0.07444919 0.20319882
00000000: a167 e73e c801 24bf 4d15 10be ecc3 833e
00000010: ddba 6dbd 1e47 27bf 880a 6b3d a4fa 403f
00000020: f52f aabe de6c aebe a280 acbc 76ec 143f
00000030: 663a 5a3d f76d 91be d178 983d 5a13 503e

fc1.weight f4 [120, 400]
-0.1205751 -0.11490233 -0.03299339 -0.021234162 -0.04169621 -0.09271739 -0.09536885 -0.104471035
-0.13372481 -0.0833777 -0.110416755 -0.089701526 -0.083634295 -0.09650807 -0.056714673 0.010594207
0.013009642 -0.0500215 0.011048667 -0.038258467 -0.050312255 0.006342529 -0.01618708 -0.06724856
-0.025249206 0.09679481 0.00028072126 -0.041505598 -0.064183995 0.016588714 -0.021523323 0.0776189
-0.0063652834 0.022189723 0.0061730915 -0.014233159 -0.021268992 0.040679667 0.031961136 0.02210224
0.028158022 -0.006238099 -0.099964775 -0.05243215 -0.0720965 -0.13898316 -0.023468966 -0.085231
-0.0063703475 -0.027718652 0.002641154 0.027588772 -0.026863106 -0.016405847 -0.018481597 0.053304814
-0.006097092 -0.041662544 -0.019154534 -0.022618046 -0.012136361 -0.07692215 -0.08909914 -0.029243387
0.03976953 -0.05363415 -0.017340044 -0.05119341 -0.102557585 0.042906277 0.086053595 0.048380908
0.047724593 -0.050269887 0.032117605 0.05471763 0.028065788 -0.0157008 -0.012614913 -0.022614578
-0.07573563 -0.05741444 -0.1113788 -0.076487586 -0.006083939 -0.03013234 -0.13452633 -0.11936184
-0.10236986 -0.010330656 -0.082385525 -0.079503804 -0.049214736 -0.019779362 -0.006523766 -0.06747323
0.0131046185 0.009987097 -0.057776745 -0.03915428 0.05665661 0.036704775 0.10902238 0.08725861
0.04388993 -0.024918707 -0.018918667 -0.006313156 -0.05669393 -0.04708331 -0.015761198 -0.06333038
-0.030491231 -0.028997237 -0.085637555 -0.023533028 -0.028290303 -0.11366642 -0.083179384 -0.10461761
-0.01144239 -0.021378612 -0.06737242 -0.018950997 -0.034485627 0.04471856 0.0781183 0.019792734
0.012607084 -0.00910998 -0.003964181 -0.036915347 -0.061287947 -0.033202726 -0.050349705 -0.014769875
-0.082108766 -0.110357575 0.014603911 0.0049030897 0.0022381814 -0.041076466 0.03601805 0.05505557
0.011506816 0.031845935 -0.022416191 0.008716865 -0.020690627 -0.0033521703 0.03513143 -0.007477484
-0.06865077 0.011865534 -0.011054783 0.004084163 -0.039257355 -0.016731212 -0.04931901 0.028869921
0.045537725 -0.00044727343 -0.0455883 -0.018365864 -0.05959881 0.01668927 0.0065760463 0.018071853
0.015985183 -0.022193793 0.011367362 -0.02152179 0.030021653 0.043677513 -0.023753695 -0.03860676
-0.06695626 0.02787169 -0.01810631 -0.06330299 -0.025483314 -0.02947703 0.0069511915 0.06750469
-0.01092483 -0.032640547 0.054005094 0.092291914 0.007693154 0.016402565 0.022904208 0.04904185
0.08207739 0.052735858 -0.032518122 0.0005731668 0.059208404 0.06546342 0.031687405 0.050596636
-0.015851215 -0.010934867 -0.042301152 -0.022270141 -0.033819273 -0.01720302 -0.061481275 -0.012036522
-0.06047597 -0.013103168 -0.0017375492 -0.08982027 -0.027494589 0.0079253465 0.015863407 -0.06859373
0.06375296 0.016493903 0.022181662 -0.012646804 0.0025667287 -0.03207658 0.089777485 0.059030894
0.037593752 -0.015296983 0.013570079 -0.050358195 0.009750745 0.032161787 0.008869708 -0.06890359
-0.05381606 0.014975721 0.037367295 0.02675416 -0.10102088 -0.038392283 0.03499191 0.03275155
0.04395652 0.020749982 -0.0058528986 0.0658653 0.019072052 0.02373781 -0.026722323 0.018527262
0.049135394 0.07962138 0.038628176 0.025480524 0.031245595 0.056665648 0.0019522059 0.022148645
00000000: 14f0 f6bd ea51 ebbd 1424 07bd 44f3 adbc
00000010: a5c9 2abd 9de2 bdbd be50 c3bd e9f4 d5bd
00000020: 28ef 08be edc1 aabd 2e22 e2bd 6fb5 b7bd
00000030: 7548 abbd 06a6 c5bd a54d 68bd 5393 2d3c
00000040: 6526 553c 58e3 4cbd 7805 353c e9b4 1cbd
00000050: 3914 4ebd fdd4 cf3b c49a 84bc 9db9 89bd
00000060: 6cd7 cebc 5b3c c63d c52d 9339 c601 2abd
00000070: e672 83bd 0ee5 873c ae51 b0bc a8f6 9e3d
00000080: de93 d0bb 39c7 b53c a547 ca3b 3232 69bc
00000090: 4f3c aebc b99f 263d aee9 023d c20f b53c
000000a0: a7ab e63c f868 ccbb 55ba ccbd 18c3 56bd
000000b0: 54a7 93bd 9a51 0ebe fd41 c0bc 978d aebd
000000c0: 59be d0bb 3a12 e3bc 3617 2d3b d901 e23c
000000d0: 0410 dcbc 8e65 86bc b866 97bc 2656 5a3d
000000e0: 1dca c7bb 58a6 2abd f8e9 9cbc 7b49 b9bc
000000f0: 96d7 46bc 5c89 9dbd 9c79 b6bd d48f efbc
00000100: 60e5 223d 7caf 5bbd b50c 8ebc 2eb0 51bd
00000110: b609 d2bd 7ebe 2f3d de3c b03d 0f2b 463d
00000120: dd7a 433d cce7 4dbd c08d 033d 981f 603d
00000130: 39ea e53c f79e 80bc c8ae 4ebc 3542 b9bc
00000140: 481b 9bbd 672b 6bbd 911a e4bd 86a5 9cbd
00000150: c85b c7bb 19d8 f6bc 45c1 09be fb73 f4bd
00000160: 4aa7 d1bd e941 29bc beb9 a8bd e4d2 a2bd
00000170: 6495 49bd 5408 a2bc 51c5 d5bb 682f 8abd
00000180: c1b4 563c eca0 233c 4fa7 6cbd 3d60 20bd
00000190: c310 683d bf57 163d 2047 df3d a4b4 b23d
000001a0: edc5 333d 5122 ccbc 52fb 9abc 97de cebb
000001b0: e537 68bd 6eda 40bd a11d 81bc 5cb3 81bd
000001c0: bfc8 f9bc 9d8b edbc be62 afbd 56c8 c0bc
000001d0: 11c1 e7bc f1c9 e8bd f459 aabd c241 d6bd
000001e0: dd78 3bbc 3322 afbc 8dfa 89bd 1f3f 9bbc
000001f0: cd40 0dbd cf2a 373d 7dfc 9f3d 5f24 a23c
00000200: f18d 4e3c 0742 15bc f6e5 81bb 8c34 17bd
00000210: 1209 7bbd 95ff 07bd 7e3b 4ebd 59fd 71bc
00000220: a428 a8bd 2703 e2bd 3e45 6f3c 19aa a03b
00000230: 74ae 123b cc3f 28bd aa87 133d f381 613d
00000240: 1687 3c3c e270 023d 29a2 b7bc 2fd1 0e3c
00000250: 647f a9bc 16b0 5bbb f9e5 0f3d af05 f5bb
00000260: c698 8cbd a867 423c 1f1f 35bc 71d4 853b
00000270: 52cc 20bd e50f 89bc bb02 4abd 9d80 ec3c
00000280: c485 3a3d 0680 eab9 ccba 3abd 0274 96bc
00000290: e21d 74bd f0b7 883c e07b d73b 6c0b 943c
000002a0: 5cf3 823c c2cf b5bc 2c3e 3a3c 774e b0bc
000002b0: f8ef f53c 31e7 323d 1c97 c2bc 1f22 1ebd
000002c0: 5d20 89bd 2c53 e43c af53 94bc ffa4 81bd
000002d0: 62c2 d0bc d079 f1bc d2c6 e33b e63f 8a3d
000002e0: 0ffe 32bc 18b2 05bd 7234 5d3d 8b03 bd3d
000002f0: da16 fc3b ac5e 863c 9ba1 bb3c 1be0 483d
00000300: 3118 a83d 8e01 583d b931 05bd 9340 163a
00000310: 8384 723d af11 863d a7ca 013d 6b3e 4f3d
00000320: 68da 81bc 2828 33bc f943 2dbd df6f b6bc
00000330: 1486 0abd 59ed 8cbc cad3 7bbd d534 45bc
00000340: a7b5 77bd acae 56bc 7abe e3ba b1f3 b7bd
00000350: 553c e1bc 50d9 013c faf3 813c df7a 8cbd
00000360: e990 823d 391e 873c 51b6 b53c 8a34 4fbc
00000370: 9036 283b bb62 03bd 42dd b73d 61ca 713d
00000380: e8fb 193d 32a0 7abc 0955 5e3c 6544 4ebd
00000390: 97c1 1f3c 14bc 033d 4052 113c 531d 8dbd
000003a0: 3b6e 5cbd ba5c 753c 730e 193d 8a2b db3c
000003b0: 09e4 cebd 3a41 1dbd ad53 0f3d 7d26 063d
000003c0: c00b 343d defb a93c acc9 bfbb 63e4 863d
000003d0: fe3c 9c3c cc75 c23c c6e8 dabc 7cc6 973c
000003e0: 3242 493d 8910 a33d 9438 1e3d 88bc d03c
000003f0: c3f6 ff3c 3d1a 683d 29e1 ff3a 1371 b53c

fc1.bias f4 [120]
0.09102491 0.025042823 0.08980858 0.08978463 0.06303848 -0.044111405 0.084328994 -0.016907914
-0.04457541 0.08865307 -0.025377974 0.17504981 0.075727075 0.0808575 0.02714212 0.088271655
0.08765924 -0.004969911 0.09011584 -0.07422682 -0.030289317 0.020664005 -0.016332265 -0.020903526
0.016601227 0.004186112 0.04441022 -0.07269809 0.049115486 0.05109201 -0.07652107 -0.0037266836
0.062332217 0.026176054 0.15257832 0.02794173 -0.009600431 0.13389766 0.119410984 -0.096770585
-0.009628159 0.21934319 0.10296326 -0.021036217 0.016259076 -0.012894146 -0.06619454 -0.05230613
0.0012254198 0.0062049283 -0.10414121 -0.0037625805 -0.0064743496 0.15050289 -0.07278782 0.054142226
-0.024025476 -0.10641597 0.03867653 -0.0858248 0.18451858 -0.026874913 0.025587672 -0.05885478
0.21749547 -0.015991071 0.09758978 0.023855899 0.11028941 -0.107641526 0.19617692 -0.004321998
0.11798315 0.013678883 0.050384607 -0.05284204 0.00022389549 -0.008969231 -0.05691259 0.051256686
-0.029200569 -0.013876706 0.039327785 0.046960022 -0.00822828 -0.0006666564 0.09493415 -0.021238994
-0.033691883 -0.0030630692 -0.0015235905 0.055215053 -0.025038745 0.071142845 -0.019065468 0.11486252
0.027486991 0.0017692352 0.14920983 -0.10718404 0.07385198 0.062159613 -0.03343202 0.1156128
-0.039247096 0.05521732 0.082549244 0.045844648 -0.036782883 0.107111566 -0.052517276 0.029085472
-0.034746252 -0.005236697 -0.045369573 -0.05279412 -0.12275422 -0.036797017 0.023908963 -0.10440553
00000000: 456b ba3d 9b26 cd3c 90ed b73d 01e1 b73d
00000010: 521a 813d 29ae 34bd aeb4 ac3d 7782 8abc
00000020: b594 36bd be8f b53d 78e5 cfbc 4240 333e
00000030: cc16 9b3d 9e98 a53d 2759 de3c c5c7 b43d
00000040: b086 b33d a3da a2bb a78e b83d 3b04 98bd
00000050: 4d21 f8bc 8f47 a93c 3ecb 85bc df3d abbc
00000060: 4cff 873c a72b 893b 7ee7 353d bce2 94bd
00000070: 522d 493d db45 513d 14b7 9cbd 603b 74bb
00000080: 1150 7f3d 2a6f d63c 7e3d 1c3e 0ee6 e43c
00000090: 204b 1dbc 781c 093e bf8d f43d a82f c6bd
000000a0: 6dbf 1dbc 809b 603e 67de d23d 2554 acbc
000000b0: c131 853c f841 53bc 0191 87bd f43e 56bd
000000c0: 449e a03a b652 cb3b fd47 d5bd a095 76bb
000000d0: c826 d4bb 6e1d 1a3e c811 95bd 3dc4 5d3d
000000e0: 13d1 c4bc 9ef0 d9bd 486b 1e3d eac4 afbd
000000f0: 70f2 3c3e c728 dcbc 3d9d d13c b611 71bd
00000100: 22b7 5e3e b5ff 82bc 27dd c73d 726d c33c
00000110: 6adf e13d 2973 dcbd 9ae2 483e 8c9f 8dbb
00000120: 26a1 f13d 651d 603c 1760 4e3d e570 58bd
00000130: 7dc5 6a39 aef3 12bc 2d1d 69bd 88f2 513d
00000140: 0836 efbc 205b 63bc 2c16 213d 2759 403d
00000150: e8cf 06bc 8ec2 2eba d66c c23d 66fd adbc
00000160: 8000 0abd c6bd 48bb 37b3 c7ba 2e29 623d
00000170: 0e1e cdbc 57b3 913d 2f2f 9cbc 0a3d eb3d
00000180: 662c e13c afe5 e73a 76ca 183e 4e83 dbbd
00000190: b53f 973d 149b 7e3d 04f0 08bd 67c6 ec3d
000001a0: 90c1 20bd 8e2b 623d 940f a93d 99c7 3b3d
000001b0: a6a9 16bd 4f5d db3d 5b1c 57bd a844 ee3c
000001c0: 1652 0ebd 9998 abbb 72d5 39bd a63e 58bd
000001d0: 9166 fbbd 78b8 16bd bbdc c33c 91d2 d5bd

fc2.weight f4 [84, 120]
0.14415967 -0.040067747 0.03236397 -0.12908013 -0.003400247 0.05843803 0.06520985 -0.075523965
0.13541313 0.05465345 0.0341855 -0.13325211 -0.016374987 0.081446834 -0.09000447 0.08419186
-0.09341446 -0.09780493 -0.003942709 -0.0026884058 0.035060164 -0.016388303 -0.11511265 0.02905825
-0.09341453 -0.08713282 -0.008425451 -0.055210385 0.11805529 0.1115714 -0.032345578 0.025999073
-0.091367975 0.05034431 0.06723288 0.037124 0.08017797 -0.07349991 0.042026363 0.11440567
-0.0708366 0.111596756 0.060238093 -0.0077323155 0.0057205586 -0.072506845 0.017849721 0.14653538
0.078135975 -0.090609014 0.120496176 -0.012042853 0.062980026 -0.11627795 0.18705003 0.11172208
-0.16491924 -0.009318667 -0.021695815 0.07975374 0.074740455 -0.045664076 -0.03947598 -0.01730828
-0.005933119 -0.028688954 0.003952158 -0.07870326 -0.0057619335 -0.107678585 0.0018265451 0.07780549
0.07322131 -0.068735376 0.0032762447 0.033309653 0.054985438 0.016098542 -0.012558329 -0.032220397
-0.073673666 0.027073469 -0.059326254 -0.007972093 -0.16093032 0.036613937 -0.023053134 0.080601364
0.067814305 0.02632326 -0.037468433 -0.12413689 0.07567974 -0.02159127 0.02591242 -0.06627959
0.09039515 -0.015873803 0.010633668 0.018290643 0.044140123 -0.025891982 -0.11979589 0.02237541
0.019407205 0.07220272 0.07632967 -0.078027606 -0.056261793 -0.072168335 0.08674023 0.042320866
0.06399737 0.08751698 0.03014862 -0.00222764 0.06697585 -0.07711176 -0.010607889 0.0013538529
-0.105555795 0.001345531 -0.050599556 -0.03810445 -0.110745735 0.06976662 0.017273625 0.09953146
-0.08478583 -0.087240554 0.005610699 0.060758106 -0.06078349 -0.09030678 -0.019923056 -0.05179909
-0.074097164 0.036584638 -0.16208045 0.07887246 -0.07092027 0.09721445 -0.10421719 -0.0659727
-0.038879786 -0.0059405495 0.05105647 0.08406163 -0.086360864 -0.069643065 0.07170111 -0.0067867413
0.06976483 0.066706665 0.0057540787 -0.023946399 0.008157352 0.04889434 -0.027012521 0.03243142
-0.18340482 -0.10374907 0.0076791146 -0.022744901 -0.058436006 -0.03177806 0.11389531 0.014963555
-0.023694571 0.010858624 0.20674066 0.010601268 0.07469195 -0.030961983 -0.021553107 0.077676386
0.010509954 -0.064146414 0.02327102 -0.013413729 0.017481312 0.03657296 0.057792183 0.0010561468
0.0403489 0.14140505 -0.038283203 -0.06913659 0.03423587 0.16989665 -0.05923286 -0.0781733
-0.121380314 0.017954398 0.055436466 0.078061536 -0.0110885715 0.09182197 -0.10435248 -0.048384544
-0.08612108 0.07628597 0.09548398 0.1056359 0.06925394 -0.07983814 0.06753268 -0.06741353
0.049342223 0.023048969 0.12447906 -0.15029255 0.09973889 -0.005938692 -0.111617014 -0.09868198
0.0038442246 -0.00043587806 -0.09571765 0.020775875 -0.055670734 0.085535884 0.110632986 -0.030198276
-0.02820102 0.02164749 0.054625776 -0.027700711 0.021595718 0.030229298 0.049471095 0.08139869
-0.10282523 0.033266734 0.13488409 0.058279958 -0.08522441 -0.03849699 -0.059259452 -0.046019014
0.0023616715 -0.015048565 0.052676667 0.010524584 -0.07892845 0.0040320363 0.052677784 0.01065928
0.011330391 -0.056925453 0.051478628 -0.005521169 0.033010878 -0.0038668665 -0.007274006 0.10260614
00000000: 989e 133e 141e 24bd 1590 043d 952d 04be
00000010: aed6 5ebb b75c 6f3d be8c 853d 4fac 9abd
00000020: bda9 0a3e 4cdc 5f3d 1806 0c3d 3e73 08be
00000030: d624 86bc 99cd a63d 4354 b8bd c86c ac3d
00000040: 1550 bfbd f34d c8bd d731 81bb f72f 30bb
00000050: 3f9b 0f3d c340 86bc 2ec0 ebbd 910b ee3c
00000060: 1e50 bfbd b172 b2bd e70a 0abc 4924 62bd
00000070: f9c6 f13d 8c7f e43d cc7c 04bd 02fc d43c
00000080: 221f bbbd d635 4e3d 64b1 893d 560f 183d
00000090: 5934 a43d 1f87 96bd d623 2c3d 854d ea3d
000000a0: c812 91bd d78c e43d 38bc 763d 5d5f fdbb
000000b0: 8673 bb3b 787e 94bd 9439 923c 5f0d 163e
000000c0: c105 a03d 3891 b9bd b3c6 f63d 634f 45bc
000000d0: acfb 803d 2223 eebd 0b8a 3f3e 8cce e43d
000000e0: 97e0 28be 53ad 18bc 6cbb b1bc ee55 a33d
000000f0: 8611 993d 410a 3bbd 91b1 21bd 18ca 8dbc
00000100: 9c6a c2bb 1905 ebbc 1b81 813b 2d2f a1bd
00000110: 9ace bcbb 9786 dcbd af68 ef3a 7c58 9f3d
00000120: 0ef5 953d 22c5 8cbd 44b6 563b b46f 083d
00000130: 6938 613d 17e1 833c 73c1 4dbc 89f9 03bd
00000140: 38e2 96bd 2ec9 dd3c 1600 73bd 629d 02bc
00000150: ebca 24be 7ff8 153d edd9 bcbc 5412 a53d
00000160: 3ae2 8a3d e1a3 d73c 8078 19bd 7b3b febd
00000170: fbfd 9a3d 2de0 b0bc 4946 d43c 98bd 87bd
00000180: 1821 b93d c709 82bc d638 2e3c 42d6 953c
00000190: 46cc 343d 6c1b d4bc 8c57 f5bd a34c b73c
000001a0: dcfb 9e3c 05df 933d bb52 9c3d f0cc 9fbd
000001b0: c472 66bd fecc 93bd dda4 b13d a558 2d3d
000001c0: 0e11 833d 1a3c b33d 3dfa f63c 99fd 11bb
000001d0: a22a 893d c5ec 9dbd b6cc 2dbc c473 b13a
000001e0: a32d d8bd 875c b03a 7b41 4fbd 6913 1cbd
000001f0: a9ce e2bd cde1 8e3d 6b81 8d3c 26d7 cb3d
00000200: 31a4 adbd 2dab b2bd f4d9 b73b 7edd 783d
00000210: 1cf8 78bd c3f2 b8bd ad35 a3bc 482b 54bd
00000220: 41c0 97bd c6d9 153d 6bf8 25be e287 a13d
00000230: a63e 91bd 5f18 c73d d26f d5bd b21c 87bd
00000240: 6940 1fbd f1a8 c2bb 9720 513d 8128 ac3d
00000250: f7dd b0bd 06a1 8ebd 08d8 923d 5063 debb
00000260: dde0 8e3d 819d 883d b68c bc3b 3d2b c4bc
00000270: 6aa6 053c 6e45 483d 5d49 ddbc cfd6 043d
00000280: 79ce 3bbe 647a d4bd 15a1 fb3b 8453 babc
00000290: 985a 6fbd b629 02bd f241 e93d b329 753c
000002a0: 1e1b c2bc 5fe8 313c d3b3 533e f1b0 2d3c
000002b0: 18f8 983d fca3 fdbc 2490 b0bc cc14 9f3d
000002c0: f131 2c3c 325f 83bd dea2 be3c 42c5 5bbc
000002d0: f834 8f3c 87cd 153d 7fb7 6c3d 686e 8a3a
000002e0: e344 253d 7ccc 103e d9ce 1cbd 7c97 8dbd
000002f0: e93a 0c3d 63f9 2d3e 289e 72bd 5319 a0bd
00000300: 3e96 f8bd 1a15 933c 5911 633d bade 9f3d
00000310: d7ac 35bc 280d bc3d c1b6 d5bd df2e 46bd
00000320: 4060 b0bd d23b 9c3d 1b8d c33d a257 d83d
00000330: 02d5 8d3d 2e82 a3bd 934e 8a3d 1b10 8abd
00000340: 121b 4a3d 31d1 bc3c e1ee fe3d 4ae6 19be
00000350: e743 cc3d 5c99 c2bb 7697 e4bd c719 cabd
00000360: 63ef 7b3b 9086 e4b9 9e07 c4bd 2b32 aa3c
00000370: ff06 64bd 702d af3d 8c93 e23d 6062 f7bc
00000380: d305 e7bc 1456 b13c 47bf 5f3d 9aec e2bc
00000390: 81e9 b03c 6fa3 f73c 34a2 4a3d 5bb4 a63d
000003a0: 0996 d2bd b342 083d 0e1f 0a3e f7b6 6e3d
000003b0: 238a aebd 05af 1dbd 0aba 72bd 6f7e 3cbd
000003c0: 46c6 1a3b 428e 76bc 7dc3 573d 4e6f 2c3c
000003d0: 3da5 a1bd 2c1f 843b a9c4 573d 43a4 2e3c
000003e0: 1ba3 393c aa2a 69bd 41db 523d ecea b4bb
000003f0: 6a36 073d 416b 7dbb c95a eebb 2b23 d23d

fc2.bias f4 [84]
-0.050661396 -0.045614112 0.0076565123 0.20139936 0.44407937 -0.021040862 0.22301506 0.03399633
-0.09141521 -0.0643839 0.25929695 -0.07619633 -0.059428707 0.0005773408 0.07292115 0.35378253
-0.029491419 -0.050757796 -0.001722504 0.15625131 0.143146 -0.03517642 0.026883282 -0.0063756937
0.101581275 -0.13805902 0.04311089 0.081912875 -0.0330469 0.007204773 0.1276755 -0.077223964
0.01780425 0.049602356 -0.012330198 0.20264058 0.0952057 0.31480995 -0.09910166 0.16690432
-0.10649021 0.10857631 -0.017545605 -0.07806332 0.018675147 0.13752362 0.26933676 0.04669456
0.1609067 -0.0046013216 0.16674455 0.17050682 -0.069247276 -0.09626356 -0.04437108 -0.035724193
-0.023985209 0.2886472 -0.053546187 -0.08017896 0.03649079 -0.2175424 -0.0052833464 0.1634842
0.00823779 -0.12935096 0.07240184 0.2757231 0.059542775 0.0010134513 0.27157494 -0.053126827
0.0773102 0.087694965 0.21811286 0.041869875 0.2692578 0.14284477 0.03671057 -0.057183284
-0.06721808 0.08796076 0.17107096 0.19377081
00000000: 5382 4fbd ddd5 3abd 7be3 fa3b a23b 4e3e
00000010: 5f5e e33e e35d acbc 0f5e 643e bc3f 0b3d
00000020: e637 bbbd b5db 83bd 92c2 843e d20c 9cbd
00000030: 846b 73bd af58 173a af57 953d fc22 b53e
00000040: fd97 f1bc 68e7 4fbd a5c5 e1ba 5800 203e
00000050: dd94 123e 2615 10bd 543a dc3c 32eb d0bb
00000060: d809 d03d 585f 0dbe 0b95 303d f0c1 a73d
00000070: 305c 07bd 0416 ec3b 5ebd 023e 9927 9ebd
00000080: 38da 913c d72b 4b3d 9904 4abc 0381 4f3e
00000090: 35fb c23d c52e a13e d0f5 cabd f7e8 2a3e
000000a0: 8a17 dabd 425d de3d cdbb 8fbc a9df 9fbd
000000b0: 9ffc 983c fed2 0c3e 82e6 893e cc42 3f3d
000000c0: bac4 243e afc6 96bb 15bf 2a3e 5799 2e3e
000000d0: 84d1 8dbd d425 c5bd 73be 35bd 8853 12bd
000000e0: a17c c4bc 91c9 933e 3f53 5bbd de34 a4bd
000000f0: 5e77 153d 6fc3 5ebe ec1f adbb 6768 273e
00000100: ccf7 063c 9474 04be 6a47 943d 942b 8d3e
00000110: 20e3 733d c8d5 843a df0b 8b3e 849b 59bd
00000120: cf54 9e3d 6b99 b33d fa58 5f3e bf7f 2b3d
00000130: 29dc 893e e645 123e d35d 163d 0539 6abd
00000140: a2a9 89bd c524 b43d 3a2d 2f3e db6b 463e

fc3.weight f4 [10, 84]
-0.024024969 0.14031704 0.037293155 0.19073929 -0.1647134 -0.059885006 -0.20471497 0.20378128
0.16838753 -0.022996074 -0.07780543 -0.02289126 -0.12556146 0.02302762 -0.045306474 -0.19723512
-0.021082217 0.058027536 -0.028579092 0.051402442 0.20795326 0.029204553 0.1803059 0.02640091
0.037360165 0.004276908 0.10942393 0.14935036 0.08719825 -0.12144979 0.1421648 -0.053721014
-0.14026333 0.18879248 -0.028974894 -0.10489652 0.09729081 -0.05403435 0.21671999 0.01398602
0.041678905 0.020516938 0.16379496 -0.10036888 0.1598843 0.26236206 -0.06269952 0.07212803
-0.03012321 -0.17991112 0.009003112 0.028330114 -0.09641097 -0.015480255 -0.073000096 -0.050907042
0.14844413 -0.33596438 0.10428041 -0.02764225 0.1793213 0.011832876 0.008268748 -0.14370799
0.047001652 0.12080543 -0.015621005 -0.10984783 0.00031424305 0.0851402 -0.25014904 0.101793386
0.19212447 0.3049505 0.21423861 -0.0139900725 -0.08374057 -0.1894304 0.038649008 -0.040935904
-0.06181487 0.09954214 0.07037349 -0.33515954 -0.0472589 0.23616986 0.0088956505 -0.13116959
-0.2673201 0.13642551 0.06084689 -0.10565622 -0.007580953 0.01454882 -0.35247204 0.0059375484
-0.026917873 0.15299195 0.12832677 -0.10653576 -0.05872675 0.059394576 -0.020586977 -0.12641647
-0.2514338 0.12154433 -0.06114514 0.16322123 0.014329853 -0.06691602 -0.20809774 -0.16046579
0.04577847 0.10254545 0.13838811 -0.13634564 -0.075437605 0.018668754 0.030752312 -0.16927901
0.010269953 -0.16858312 -0.06673847 -0.19152904 0.13259014 -0.08608681 0.12101868 -0.015252277
0.032033715 0.44284463 -0.022232957 -0.080171235 -0.21116908 0.05774838 -0.30877337 -0.08156078
0.05889648 0.18920748 0.17992657 0.039350763 -0.044082634 -0.08893826 -0.043019235 0.07082478
0.054989725 0.37266627 0.053452987 -0.088883616 0.09048111 -0.053900205 -0.058979146 0.08576992
0.12059993 0.31401443 -0.09792048 -0.04596132 0.13543512 -0.079157665 -0.2502322 -0.10790257
-0.08919573 -0.12040519 -0.1124448 0.19587223 0.020616326 0.038585845 -0.17441207 0.007679854
-0.16577849 0.1802475 0.09346598 -0.010259579 0.17116475 -0.026259955 -0.04517887 0.008131613
-0.09108826 -0.055565637 0.020357376 0.014650905 0.07008674 -0.09770534 0.0712129 -0.1254229
0.04607203 0.052797996 -0.0832167 0.14935243 0.27085185 -0.05935637 0.14195181 -0.09976824
0.11851294 0.16046755 0.002523028 0.1612748 -0.093015306 0.064914584 -0.036376785 -0.06602153
0.049502835 -0.17316127 0.0399588 0.18214783 0.047258887 0.13504086 0.05062677 0.20266789
-0.15177055 -0.086642735 -0.20148808 -0.035871994 0.021108733 0.050953925 -0.019796971 -0.12483959
0.12831141 0.22528116 0.30509526 0.12632035 -0.03125087 -0.069761835 -0.119669944 0.096606456
0.016140632 -0.06859371 -0.035376105 -0.13671467 0.01641177 -0.0153904455 0.10423057 -0.041784924
-0.1365339 0.12483119 0.05961763 0.065941624 -0.2567216 -0.10933453 0.0011756965 0.1967453
-0.020525234 0.08198288 0.15474172 0.023666203 0.113260314 0.04692331 -0.0363545 0.086169094
0.01869974 0.06987106 0.033906713 0.08826781 -0.07059996 -0.032644596 0.1065509 -0.018867282
00000000: 03d0 c4bc 45af 0f3e b5c0 183d 2951 433e
00000010: a1aa 28be fb49 75bd cda0 51be 0aac 503e
00000020: c86d 2c3e 4362 bcbc 7458 9fbd 7486 bbbc
00000030: 2f93 00be 6ba4 bc3c 4893 39bd 01f8 49be
00000040: 9db4 acbc 48ae 6d3d b31e eabc 5e8b 523d
00000050: b3f1 543e 633e ef3c 1ca2 383e b946 d83c
00000060: f906 193d 4e25 8c3b a719 e03d 4def 183e
00000070: ff94 b23d abba f8bd a693 113e 910a 5cbd
00000080: 31a1 0fbe d152 413e c25c edbc fdd3 d6bd
00000090: 6740 c73d 1f53 5dbd d8eb 5d3e 9f25 653c
000000a0: 80b7 2a3d 2313 a83c deb9 273e 338e cdbd
000000b0: b6b8 233e 5254 863e 9b68 80bd dcb7 933d
000000c0: f3c4 f6bc 9f3a 38be ca81 133c 8e14 e83c
000000d0: 1d73 c5bd e5a0 7dbc 1381 95bd e783 50bd
000000e0: bd01 183e 8603 acbe f890 d53d 0072 e2bc
000000f0: 01a0 373e aede 413c a579 073c 3028 13be
00000100: ce84 403d d668 f73d 3eef 7fbc e6f7 e0bd
00000110: fdc0 a439 fc5d ae3d 8913 80be 0d79 d03d
00000120: 47bc 443e 7922 9c3e 5e61 5b3e 9e36 65bc
00000130: 2d80 abbd 0bfa 41be 6c4e 1e3d 68ac 27bd
00000140: 9731 7dbd c0dc cb3d fa1f 903d 089a abbe
00000150: 8c92 41bd 83d6 713e 10bf 113c 5251 06be
00000160: 2ede 88be 21b3 0b3e 973a 793d 4a62 d8bd
00000170: a569 f8bb 2d5e 6e3c 3777 b4be c48f c23b
00000180: df82 dcbc eca9 1c3e 1868 033e 6c2f dabd
00000190: 768b 70bd ba47 733d 05a6 a8bc 5273 01be
000001a0: eebb 80be 3cec f83d 5473 7abd 7723 273e
000001b0: c2c7 6a3c 440b 89bd 9317 55be 2551 24be
000001c0: 3482 3b3d 5903 d23d 9db5 0d3e 319e 0bbe
000001d0: 087f 9abd 37ef 983c 46ec fb3c 7a57 2dbe
000001e0: 4e43 283c 0ea1 2cbe 2eae 88bd 3020 44be
000001f0: b6c5 073e 484e b0bd a4d8 f73d b0e4 79bc
00000200: c935 033d 88bc e23e e421 b6bc d130 a4bd
00000210: b53c 58be 9189 6c3d 8b17 9ebe 5709 a7bd
00000220: 6f3d 713d 9bbf 413e ac3e 383e 442e 213d
00000230: fe8f 34bd 4325 b6bd f034 30bd 950c 913d
00000240: e83c 613d 1dce be3e 85f1 5a3d 9d08 b6bd
00000250: 294e b93d 76c6 5cbd 1e94 71bd 24a8 af3d
00000260: 19fd f63d 80c6 a03e 888a c8bd f041 3cbd
00000270: 81af 0a3e 6a1d a2bd 6f1e 80be 06fc dcbd
00000280: 40ac b6bd ff96 f6bd 7649 e6bd bb92 483e
00000290: 92e3 a83c 310c 1e3d 1499 32be 49a7 fb3b
000002a0: d6c1 29be cd92 383e 176b bf3d cb17 28bc
000002b0: d045 2f3e 1e1f d7bc 7b0d 39bd 753a 053c
000002c0: 7b8c babd cb98 63bd 83c4 a63c 590a 703c
000002d0: a389 8f3d bd19 c8bd 12d8 913d dc6e 00be
000002e0: 06b6 3c3d b642 583d 846d aabd d8ef 183e
000002f0: 18ad 8a3e aa1f 73bd d15b 113e 4a53 ccbd
00000300: eab6 f23d 9b51 243e 6359 253b 3925 253e
00000310: cf7e bebd f0f1 843d d3ff 14bd 4c36 87bd
00000320: 7cc3 4a3d 3051 31be d7ab 233d f684 3a3e
00000330: 8992 413d 2748 0a3e 045e 4f3d 2c88 4f3e
00000340: bd69 1bbe bf71 b1bd e452 4ebe 83ee 12bd
00000350: 39ec ac3c 10b5 503d 422d a2bc e6ab ffbd
00000360: 1164 033e 1bb0 663e 7235 9c3e 1f5a 013e
00000370: ea00 00bd 4bdf 8ebd 8415 f5bd 9bd9 c53d
00000380: 5c39 843c dc7a 8cbd 89e6 10bd eefe 0bbe
00000390: fa71 863c 3528 7cbc d676 d53d ab26 2bbd
000003a0: 8bcf 0bbe 7fa7 ff3d 9e31 743d 670c 873d
000003b0: 0371 83be c8ea dfbd d419 9a3a 9a77 493e
000003c0: 8924 a8bc a4e6 a73d 9d74 1e3e a0df c13c
000003d0: 06f5 e73d a832 403d 75e8 14bd 6c79 b03d
000003e0: 3230 993c 8f18 8f3d c4e1 0a3d c1c5 b43d
000003f0: b696 90bd 57b6 05bd 5c37 da3d 8f8f 9abc

fc3.bias f4 [10]
-0.35382128 -0.37639275 0.081314854 0.40892318 0.56868607 -0.054387268 0.18813832 -0.18179716
0.15547125 -0.280335
00000000: 1028 b5be 8db6 c0be 6788 a63d 615e d13e
00000010: 6995 113f 2fc5 5ebd 55a7 403e 0929 3abe
00000020: db33 1f3e 1288 8fbe
